model-deployment/trained.tflite (tflite, 12456 bytes, 3 tensors)

sequential/y_pred/MatMul i1 [7, 20] scale=0.0051345853 zero_point=0
000000 40 fa c4 b8 e5 b3 2b 3a f8 77 a2 67 c1 40 cd cc
       0.32861346 -0.030807512 -0.30807513 -0.36969015 -0.1386338 -0.39536306 0.22078717 0.29780594 -0.041076683 0.6110157 -0.48265103 0.5288623 -0.32347888 0.32861346 -0.26186386 -0.26699844
000010 a4 3b 26 c2 34 6b 31 a4 05 25 e1 19 1b ee b8 32
       -0.47238186 0.30294055 0.19511424 -0.3183443 0.26699844 0.5494006 0.2515947 -0.47238186 0.025672927 0.18997966 -0.15917215 0.12836464 0.1386338 -0.09242254 -0.36969015 0.25672927
000020 f3 09 09 b2 32 c1 a7 3a b9 b5 09 c9 45 0c 03 95
       -0.06674961 0.04621127 0.04621127 -0.40049765 0.25672927 -0.32347888 -0.45697808 0.29780594 -0.36455557 -0.3850939 0.04621127 -0.2824022 0.35428637 0.061615024 0.015403756 -0.5494006
000030 25 3c 95 60 33 aa 33 45 a8 1a fa e4 09 b3 a6 81
       0.18997966 0.30807513 -0.5494006 0.4929202 0.26186386 -0.44157434 0.26186386 0.35428637 -0.4518435 0.13349922 -0.030807512 -0.14376839 0.04621127 -0.39536306 -0.46211267 -0.65209234
000040 e8 c6 15 59 61 42 f6 0a c3 c8 f8 3b bf ff 28 c0
       -0.12323005 -0.29780594 0.10782629 0.45697808 0.49805477 0.33888263 -0.051345855 0.051345855 -0.3132097 -0.28753677 -0.041076683 0.30294055 -0.33374804 -0.0051345853 0.20538342 -0.32861346
000050 40 ff 42 d6 6f b2 32 f1 a9 f4 9e af c5 0f a0 51
       0.32861346 -0.0051345853 0.33888263 -0.21565259 0.56993896 -0.40049765 0.25672927 -0.07701878 -0.44670892 -0.061615024 -0.5031894 -0.41590142 -0.30294055 0.07701878 -0.4929202 0.41590142
000060 3e c1 d2 37 d3 e5 15 6c b2 24 16 12 2f fc d3 50
       0.3183443 -0.32347888 -0.23619093 0.2824022 -0.23105633 -0.1386338 0.10782629 0.5545352 -0.40049765 0.18484508 0.112960875 0.09242254 0.24132551 -0.020538341 -0.23105633 0.41076684
000070 0b fb c0 01 3f d9 45 3e 45 9e c6 12 27 48 d2 be
       0.056480438 -0.025672927 -0.32861346 0.0051345853 0.32347888 -0.20024882 0.35428637 0.3183443 0.35428637 -0.5031894 -0.29780594 0.09242254 0.20024882 0.36969015 -0.23619093 -0.33888263
000080 43 fb 18 35 1e 45 41 9d 11 b2 46 c7
       0.3440172 -0.025672927 0.12323005 0.27213302 0.15403756 0.35428637 0.33374804 -0.50832397 0.08728795 -0.40049765 0.35942098 -0.29267135

sequential/dense_1/MatMul i1 [20, 40] scale=0.0037418178 zero_point=0
000000 1b cc 7f 50 ce f7 27 30 01 cf 39 2f bd 37 d5 30
       0.10102908 -0.19457452 0.47521085 0.29934543 -0.18709089 -0.03367636 0.14593089 0.17960726 0.0037418178 -0.18334907 0.21328361 0.17586544 -0.25070179 0.20579998 -0.16089816 0.17960726
000010 bf 42 dd 28 18 e9 f6 0d f0 ca e1 f3 f2 ad 2e 06
       -0.24321815 0.24695997 -0.13096362 0.14967272 0.08980363 -0.086061805 -0.03741818 0.04864363 -0.059869085 -0.20205817 -0.11599635 -0.04864363 -0.05238545 -0.31057087 0.17212361 0.022450907
000020 e4 e3 bf e7 38 44 23 f0 d3 33 34 dd b9 cf 30 28
       -0.1047709 -0.108512715 -0.24321815 -0.093545444 0.2095418 0.25444362 0.13096362 -0.059869085 -0.1683818 0.1908327 0.19457452 -0.13096362 -0.26566905 -0.18334907 0.17960726 0.14967272
000030 dc da fc bf 59 d0 cf 6e dd 06 dc 35 28 fa b2 2a
       -0.13470544 -0.14218907 -0.014967271 -0.24321815 0.3330218 -0.17960726 -0.18334907 0.41159996 -0.13096362 0.022450907 -0.13470544 0.19831634 0.14967272 -0.022450907 -0.29186177 0.15715635
000040 5c af f1 1a 11 2a ff 55 42 44 53 b4 4c fa c9 0f
       0.34424722 -0.30308723 -0.056127265 0.09728726 0.063610904 0.15715635 -0.0037418178 0.3180545 0.24695997 0.25444362 0.31057087 -0.28437814 0.28437814 -0.022450907 -0.20579998 0.056127265
000050 ee fb e6 e0 d9 2a f6 ff 3d b5 d2 dd 4a df fe 0b
       -0.06735272 -0.01870909 -0.09728726 -0.11973817 -0.14593089 0.15715635 -0.03741818 -0.0037418178 0.22825089 -0.28063634 -0.17212361 -0.13096362 0.2768945 -0.123479985 -0.0074836356 0.041159995
000060 dc fc d4 b9 39 4c 2b ae 48 df 49 40 cf 20 b3 6b
       -0.13470544 -0.014967271 -0.16463998 -0.26566905 0.21328361 0.28437814 0.16089816 -0.30682907 0.26941088 -0.123479985 0.2731527 0.23947634 -0.18334907 0.11973817 -0.28811997 0.4003745
000070 f4 4a c1 c2 25 43 fc 02 20 4a b8 d5 e5 48 d5 08
       -0.044901814 0.2768945 -0.23573452 -0.2319927 0.13844725 0.25070179 -0.014967271 0.0074836356 0.11973817 0.2768945 -0.26941088 -0.16089816 -0.10102908 0.26941088 -0.16089816 0.029934542
000080 ed 4a 61 b0 13 0c 0c 33 0f f9 93 29 cc 06 9f 02
       -0.071094535 0.2768945 0.36295632 -0.29934543 0.071094535 0.044901814 0.044901814 0.1908327 0.056127265 -0.026192725 -0.40785813 0.15341453 -0.19457452 0.022450907 -0.36295632 0.0074836356
000090 b7 34 cc c5 ca c5 a4 0c ba ed dc b5 cc cb bd f1
       -0.2731527 0.19457452 -0.19457452 -0.22076724 -0.20205817 -0.22076724 -0.34424722 0.044901814 -0.26192725 -0.071094535 -0.13470544 -0.28063634 -0.19457452 -0.19831634 -0.25070179 -0.056127265
0000a0 ee bd d0 f2 a3 44 ec 2e de 36 9e 4d e2 fb 37 31
       -0.06735272 -0.25070179 -0.17960726 -0.05238545 -0.34798905 0.25444362 -0.07483636 0.17212361 -0.12722181 0.20205817 -0.36669815 0.28811997 -0.11225453 -0.01870909 0.20579998 0.18334907
0000b0 cc 32 da f7 d6 59 fe fc 28 d5 35 08 f1 1c d0 a7
       -0.19457452 0.18709089 -0.14218907 -0.03367636 -0.15715635 0.3330218 -0.0074836356 -0.014967271 0.14967272 -0.16089816 0.19831634 0.029934542 -0.056127265 0.1047709 -0.17960726 -0.3330218
0000c0 ff be 21 5f 14 77 59 27 ae c0 e9 fe aa 35 df ee
       -0.0037418178 -0.24695997 0.123479985 0.35547268 0.07483636 0.44527632 0.3330218 0.14593089 -0.30682907 -0.23947634 -0.086061805 -0.0074836356 -0.32179633 0.19831634 -0.123479985 -0.06735272
0000d0 e5 d7 ab 24 e8 f2 1c af 0a 1f c3 05 40 c9 bb b6
       -0.10102908 -0.15341453 -0.3180545 0.13470544 -0.08980363 -0.05238545 0.1047709 -0.30308723 0.03741818 0.11599635 -0.22825089 0.01870909 0.23947634 -0.20579998 -0.25818542 -0.2768945
0000e0 c2 3a e1 3f 21 13 56 bb 16 1d 2f ee 28 fb 2f d8
       -0.2319927 0.21702543 -0.11599635 0.23573452 0.123479985 0.071094535 0.32179633 -0.25818542 0.08231999 0.108512715 0.17586544 -0.06735272 0.14967272 -0.01870909 0.17586544 -0.14967272
0000f0 47 db 4a 0b d9 3c cc fe 2c ec 02 0d 2b d1 8f d3
       0.26566905 -0.13844725 0.2768945 0.041159995 -0.14593089 0.22450906 -0.19457452 -0.0074836356 0.16463998 -0.07483636 0.0074836356 0.04864363 0.16089816 -0.17586544 -0.4228254 -0.1683818

sequential/dense/MatMul i1 [40, 222] scale=0.0033323306 zero_point=0
000000 14 1e 14 04 00 15 f8 1e 38 08 46 40 f9 07 f9 28
       0.06664661 0.099969916 0.06664661 0.013329322 0.0 0.069978945 -0.026658645 0.099969916 0.18661052 0.026658645 0.23326315 0.21326916 -0.023326315 0.023326315 -0.023326315 0.13329323
000010 2c e1 f4 08 23 eb eb 01 f0 04 17 e5 32 34 1c 0e
       0.14662255 -0.10330225 -0.039987966 0.026658645 0.116631575 -0.069978945 -0.069978945 0.0033323306 -0.05331729 0.013329322 0.0766436 -0.08997293 0.16661653 0.1732812 0.09330526 0.04665263
000020 05 0a 2d 15 eb 03 fe f6 14 05 14 ea eb 21 ec fe
       0.016661653 0.033323307 0.14995487 0.069978945 -0.069978945 0.009996992 -0.006664661 -0.033323307 0.06664661 0.016661653 0.06664661 -0.07331128 -0.069978945 0.10996691 -0.06664661 -0.006664661
000030 3b f0 0a 05 e8 e5 de 24 03 eb ec d0 11 04 d0 13
       0.1966075 -0.05331729 0.033323307 0.016661653 -0.07997593 -0.08997293 -0.11329924 0.1199639 0.009996992 -0.069978945 -0.06664661 -0.15995187 0.05664962 0.013329322 -0.15995187 0.06331428
000040 19 d3 25 1e f8 ef 0f d7 ee f6 e1 eb e6 10 21 ff
       0.083308265 -0.14995487 0.12329623 0.099969916 -0.026658645 -0.05664962 0.049984958 -0.13662556 -0.05998195 -0.033323307 -0.10330225 -0.069978945 -0.0866406 0.05331729 0.10996691 -0.0033323306
000050 29 f1 f8 d4 10 f1 ef fa 15 d6 fc da 09 e9 1b 2a
       0.13662556 -0.049984958 -0.026658645 -0.14662255 0.05331729 -0.049984958 -0.05664962 -0.019993983 0.069978945 -0.13995789 -0.013329322 -0.12662856 0.029990975 -0.0766436 0.08997293 0.13995789
000060 09 16 df d1 e9 20 09 18 11 24 f2 e9 e9 eb 08 1a
       0.029990975 0.07331128 -0.10996691 -0.15661953 -0.0766436 0.10663458 0.029990975 0.07997593 0.05664962 0.1199639 -0.04665263 -0.0766436 -0.0766436 -0.069978945 0.026658645 0.0866406
000070 01 ef e2 0c fb e4 32 35 ff 28 39 08 fd 10 f5 d9
       0.0033323306 -0.05664962 -0.099969916 0.039987966 -0.016661653 -0.09330526 0.16661653 0.17661352 -0.0033323306 0.13329323 0.18994285 0.026658645 -0.009996992 0.05331729 -0.03665564 -0.1299609
000080 ff e9 01 01 13 04 1b 20 fb 02 e6 f4 2a 0e f5 f7
       -0.0033323306 -0.0766436 0.0033323306 0.0033323306 0.06331428 0.013329322 0.08997293 0.10663458 -0.016661653 0.006664661 -0.0866406 -0.039987966 0.13995789 0.04665263 -0.03665564 -0.029990975
000090 f5 ff 0b 20 ed f1 0f 04 06 29 14 f6 0c fd fc 07
       -0.03665564 -0.0033323306 0.03665564 0.10663458 -0.06331428 -0.049984958 0.049984958 0.013329322 0.019993983 0.13662556 0.06664661 -0.033323307 0.039987966 -0.009996992 -0.013329322 0.023326315
0000a0 09 f7 fc e6 f1 e6 cc f7 f3 db df 0a db d3 ff 13
       0.029990975 -0.029990975 -0.013329322 -0.0866406 -0.049984958 -0.0866406 -0.1732812 -0.029990975 -0.0433203 -0.12329623 -0.10996691 0.033323307 -0.12329623 -0.14995487 -0.0033323306 0.06331428
0000b0 d5 06 f5 0d f1 13 0c e1 dd 0c f2 09 d4 05 19 fd
       -0.14329022 0.019993983 -0.03665564 0.0433203 -0.049984958 0.06331428 0.039987966 -0.10330225 -0.116631575 0.039987966 -0.04665263 0.029990975 -0.14662255 0.016661653 0.083308265 -0.009996992
0000c0 31 0e 33 25 f3 0b f4 10 f3 04 ff 08 02 ff fe e7
       0.1632842 0.04665263 0.16994886 0.12329623 -0.0433203 0.03665564 -0.039987966 0.05331729 -0.0433203 0.013329322 -0.0033323306 0.026658645 0.006664661 -0.0033323306 -0.006664661 -0.083308265
0000d0 2b 22 11 d8 14 19 d5 20 26 d6 1e e5 e6 ff bf 21
       0.14329022 0.11329924 0.05664962 -0.13329323 0.06664661 0.083308265 -0.14329022 0.10663458 0.12662856 -0.13995789 0.099969916 -0.08997293 -0.0866406 -0.0033323306 -0.21660149 0.10996691
0000e0 e4 02 0b d9 f4 0d 13 17 eb 19 07 ef f1 f9 26 17
       -0.09330526 0.006664661 0.03665564 -0.1299609 -0.039987966 0.0433203 0.06331428 0.0766436 -0.069978945 0.083308265 0.023326315 -0.05664962 -0.049984958 -0.023326315 0.12662856 0.0766436
0000f0 d1 01 df 1e 0d 14 f9 cc fb f0 c8 17 e2 d9 e3 11
       -0.15661953 0.0033323306 -0.10996691 0.099969916 0.0433203 0.06664661 -0.023326315 -0.1732812 -0.016661653 -0.05331729 -0.18661052 0.0766436 -0.099969916 -0.1299609 -0.096637584 0.05664962
